tago/model.pt (torch, 6599 bytes, 10 tensors)

rnn.weight_ih_l0 f4 [16, 6]
0.025403162 0.19575009 -0.059331942 0.28140745 0.44109493 -0.2456291 -0.040507432 0.049344786
0.052290857 0.21042907 -0.3928597 0.62881553 0.15970013 0.0056282193 -0.30861974 -0.012542503
0.44463077 -0.2741835 -0.23862171 -0.22462732 -0.13082817 -0.21989106 -0.6645569 0.27566642
0.10555937 -0.32316822 0.13903975 -0.31943488 0.52941954 -0.07789158 -0.10285705 -0.05095174
-0.2572055 -0.46977362 0.012953579 -0.116288416 -0.084552154 0.0066217124 -0.28439438 0.03510815
0.17108124 -0.03555851 0.30626774 0.09015642 -0.14699079 0.08302437 0.023661118 0.009101177
0.2310168 -0.18211004 0.03425087 -0.17021082 -0.3379026 -0.14909588 0.050731618 0.1581805
-0.13575122 0.053074583 -0.008272131 0.24764086 0.12900898 0.23384857 -0.17126234 -0.07606304
-0.5507802 0.16181323 -0.2010301 0.110055625 -0.05606923 0.06733599 0.57921535 0.08937802
-0.1315445 -0.17450349 -0.21707551 0.38459286 0.3453025 -0.013747691 0.14615573 -0.011399151
0.032359168 0.09700527 0.12286874 0.17150126 0.006212332 0.10032959 -0.16344777 -0.037628096
0.41587663 -0.62907195 -0.06864689 0.25562817 0.11860343 0.106852695 0.32028615 -0.078440055
00000000: 4b1a d03c b672 483e 0d06 73bd a314 903e
00000010: 32d7 e13e 3286 7bbe 1feb 25bd c21d 4a3d
00000020: f02e 563d b87a 573e e824 c9be 0efa 203f
00000030: 6e88 233e ed6c b83b 6803 9ebe 127f 4dbc
00000040: a5a6 e33e c861 8cbe 4059 74be b404 66be
00000050: d2f7 05be 1f2b 61be 6720 2abf 2624 8d3e
00000060: 832f d83d 4e76 a5be 7060 0e3e f88c a3be
00000070: 0a88 073f 9f85 9fbd b8a6 d2bd c6b2 50bd
00000080: 70b0 83be 2b86 f0be 403b 543c 9f28 eebd
00000090: ae29 adbd f3fa d83b 249c 91be 90cd 0f3d
000000a0: ec2f 2f3e cda5 11bd 20cf 9c3e eea3 b83d
000000b0: c184 16be ae08 aa3d f6d4 c13c 1a1d 153c
000000c0: ab8f 6c3e 0e7b 3abe a44a 0c3d bf4b 2ebe
000000d0: 9201 adbe 97ac 18be f5cb 4f3d 12fa 213e
000000e0: 5e02 0bbe bc64 593d d587 07bc 9195 7d3e
000000f0: ee1a 043e 0076 6f3e 655f 2fbe f0c6 9bbd
00000100: eeff 0cbf 5eb2 253e d6da 4dbe d864 e13d
00000110: d9a8 65bd 74e7 893d 7547 143f d30b b73d
00000120: 9ab3 06be 0bb1 32be 0b49 5ebe 5be9 c43e
00000130: 7dcb b03e ff3d 61bc d9a9 153e 81c3 3abc
00000140: 0c8b 043d b3aa c63d 9ba2 fb3d 079e 2f3e
00000150: d190 cb3b 9a79 cd3d da5e 27be eb1f 1abd
00000160: c8ed d43e dc0a 21bf be96 8cbd b2e1 823e
00000170: 5be6 f23d 96d5 da3d 8cfc a33e 2ea5 a0bd

rnn.weight_hh_l0 f4 [16, 16]
0.036506016 -0.34199488 0.32966238 0.070669174 -0.06202434 0.5061234 0.22855452 0.62260604
0.36312842 0.17719331 0.29495144 -0.27839747 -0.025376303 0.041394107 0.33696902 0.03954262
0.006788761 -0.059675887 -0.072030775 -0.27266672 0.12262202 -0.23950748 -0.030495964 -0.1410593
-0.31969777 -0.01158979 0.18873909 0.11102508 -0.18591636 -0.1461949 -0.25327316 0.36794356
-0.1881159 0.03881474 -0.09646205 0.0922688 0.37379918 0.032680906 -0.00764527 0.043758493
0.24126148 0.18579873 0.27497774 -0.16880189 -0.26468602 -0.0031371785 -0.32677817 0.060072448
-0.02710193 -0.31468868 0.21593833 -0.086631775 -0.016866826 0.09494281 0.115985684 -0.19369976
-0.2402382 0.2337378 0.0972697 0.2507933 -0.044399973 -0.02333589 0.061116893 -0.081835374
-0.31434098 0.27193192 -0.08048032 -0.12946734 -0.12909235 -0.25154522 0.09589013 -0.36000392
-0.22160266 -0.24865375 -0.31576344 0.30309555 -0.24793117 -0.07901065 -0.04985571 -0.048341542
0.114598304 -0.15707357 0.11178355 0.22512415 -0.18032958 0.15404394 0.3357743 -0.05352779
0.030547109 0.19554651 -0.10654382 0.12253486 0.3463071 -0.07719362 0.043716744 -0.1256125
-0.32059595 -0.20942707 -0.10315783 0.38914496 0.18263102 0.26465213 0.17851265 -0.46755162
-0.38889346 -0.4484181 -0.06822873 0.273434 0.016096408 -0.030775249 0.27303216 0.26883614
0.09257948 0.19614574 0.21931633 -0.049990434 0.53820056 0.2942053 -0.015537126 0.26319408
0.3049162 0.21134229 -0.23600681 -0.15284085 0.01996468 0.33039847 0.010945096 -0.21112977
0.15604281 -0.033467866 -0.35088155 0.0722552 -0.48780257 0.079504825 -0.10679962 -0.41195652
-0.289016 0.11124786 0.14851663 0.2201393 0.19759843 -0.3110516 -0.10398444 0.11763373
-0.19289716 0.18158852 -0.14339697 -0.3393456 -0.16967033 -0.11176094 0.19319315 0.27954707
0.29042962 0.12113626 0.15200718 -0.23794958 -0.05015682 0.53412443 0.054585833 0.2782587
0.41005006 -0.1537726 0.134621 0.40774456 -0.17988434 0.23132865 0.14246306 -0.096798144
-0.36782923 0.33055618 0.3628505 0.16740716 0.16877751 -0.08726383 0.45522612 -0.14837554
-0.14520109 0.21623869 0.22541593 -0.28669032 0.24435343 0.28261426 -0.05086628 0.3018548
-0.18944769 -0.051836446 0.20418426 0.05835784 -0.16750684 0.07908169 -0.023598282 -0.08184669
0.016168622 0.31875587 0.019153394 -0.2004483 -0.026715726 -0.028764743 0.04105685 -0.21939693
-0.07723203 -0.17786705 -0.12834643 0.15848804 -0.3262655 0.18375236 0.19615978 0.13798288
-0.13801071 -0.115171716 0.080909394 -0.20375055 0.10713738 -0.1779718 -0.07429048 -0.1590338
-0.034705106 0.21970741 -0.17698371 0.24371581 -0.08707071 0.19691993 0.028592382 -0.24896662
0.23156802 0.08919314 0.47567245 0.16793543 0.0074879765 0.26244387 -0.037748374 0.42857468
0.05550171 -0.017406292 -0.17439872 -0.32647547 0.1159251 -0.06413397 0.06612766 -0.05658023
-0.066276215 0.044555936 -0.3822238 -0.1574258 0.11235161 0.17565598 0.07638539 -0.16511719
0.18444358 -0.37479207 -0.4345954 0.06508835 -0.19018725 0.16053015 -0.1275612 0.01729627
00000000: 5587 153d f419 afbe 82c9 a83e 00bb 903d
00000010: 3c0d 7ebd 4e91 013f 320a 6a3e 1c63 1f3f
00000020: f8eb b93e 2a72 353e e003 973e 1d8a 8ebe
00000030: f7e1 cfbc de8c 293d 3487 ac3e 71f7 213d
00000040: 4174 de3b b46e 74bd df84 93bd f99a 8bbe
00000050: 4121 fb3d 7341 75be acd2 f9bc d971 10be
00000060: 6daf a3be 1ae3 3dbc d244 413e 1e61 e33d
00000070: dc60 3ebe 1eb4 15be 05ad 81be 1963 bc3e
00000080: 74a1 40be 34fc 1e3d e58d c5bd 6df7 bc3d
00000090: 9b62 bf3e 6adc 053d 2c85 fabb 1b3c 333d
000000a0: 400d 773e 0642 3e3e e2c9 8c3e 67da 2cbe
000000b0: ed84 87be 1f99 4dbb 784f a7be 870e 763d
000000c0: de04 debc e01e a1be f01e 5d3e 006c b1bd
000000d0: 4c2c 8abc 6071 c23d e789 ed3d 3b59 46be
000000e0: 0101 76be f658 6f3e 5635 c73d fb67 803e
000000f0: bfdc 35bd e92a bfbc b555 7a3d 4e99 a7bd
00000100: 4df1 a0be a93a 8b3e ded2 a4bd 1693 04be
00000110: c930 04be 89ca 80be 0b62 c43d 6f52 b8be
00000120: cfeb 62be 179f 7ebe bfab a1be 572f 9b3e
00000130: abe1 7dbe 56d0 a1bd 8035 4cbd c801 46bd
00000140: 84b2 ea3d e5d7 20be c6ee e43d f286 663e
00000150: 51a8 38be b2bd 1d3e 9cea ab3e f53f 5bbd
00000160: ee3d fa3c 583d 483e a533 dabd 8ff3 fa3d
00000170: 2a4f b13e b017 9ebd 5410 333d 90a0 00be
00000180: 2725 a4be 0d74 56be 6a44 d3bd 023e c73e
00000190: a003 3b3e 7c80 873e 05cc 363e ed62 efbe
000001a0: 0b1d c7be 0f97 e5be 81bb 8bbd 8bff 8b3e
000001b0: 9ddc 833c 601c fcbc dfca 8b3e e4a4 893e
000001c0: 4f9a bd3d 6eda 483e 7694 603e c5c2 4cbd
000001d0: 83c7 093f 14a2 963e 6e8f 7ebc 60c1 863e
000001e0: fa1d 9c3e 1d6a 583e c5ab 71be 5082 1cbe
000001f0: f88c a33c fd29 a93e 0f53 333c 6732 58be
00000200: b0c9 1f3e 9a15 09bd bfa6 b3be 89fa 933d
00000210: 42c1 f9be 6dd3 a23d c2b9 dabd f7eb d2be
00000220: e8f9 93be ebd5 e33d be14 183e 326c 613e
00000230: 3e57 4a3e 2842 9fbe cbf5 d4bd f4e9 f03d
00000240: d586 45be 57f2 393e a8d6 12be b5be adbe
00000250: 0fbe 2dbe ebe2 e4bd 6dd4 453e cb20 8f3e
00000260: 31b3 943e 4a16 f83d c5a7 1b3e 0ea9 73be
00000270: 3d71 4dbd 61bc 083f 6595 5f3d ed77 8e3e
00000280: 15f2 d13e 9176 1dbe 16da 093e e5c3 d03e
00000290: 9a33 38be 6be1 6c3e d6e1 113e 1b3e c6bd
000002a0: 1d54 bcbe a93e a93e 8ac7 b93e c86c 2b3e
000002b0: 03d4 2c3e 61b7 b2bd 6613 e93e c2ef 17be
000002c0: 98af 14be ad6d 5d3e 6fd3 663e 13c9 92be
000002d0: c937 7a3e d1b2 903e 2959 50bd b68c 9a3e
000002e0: 93fe 41be 7452 54bd ae15 513e a108 6f3d
000002f0: ea86 2bbe 95f5 a13d 2f51 c1bc 3d9f a7bd
00000300: 0f74 843c f833 a33e 94e7 9c3c 5242 4dbe
00000310: f0da dabc 0aa4 ebbc 3a2b 283d 97a9 60be
00000320: d42b 9ebd c822 36be 3f6d 03be b04a 223e
00000330: 460c a7be 9429 3c3e 1cde 483e 624b 0d3e
00000340: ae52 0dbe 26df ebbd d3b3 a53d fca3 50be
00000350: d86a db3d 3d3e 36be 9b25 98bd c2d9 22be
00000360: f126 0ebd fbfa 603e 383b 35be a390 793e
00000370: 2152 b2bd 61a5 493e 923a ea3c 1bf1 7ebe
00000380: 2b20 6d3e e5aa b63d 578b f33e 44f7 2b3e
00000390: b35d f53b 0b5f 863e 0a9e 1abd 246e db3e
000003a0: c355 633d a497 8ebc 9495 32be cb27 a7be
000003b0: 246a ed3d ac58 83bd f06d 873d acc0 67bd
000003c0: d3bb 87bd 4980 363d d7b2 c3be 3b34 21be
000003d0: 9a18 e63d 29df 333e f16f 9c3d 7b14 29be
000003e0: c7de 3c3e bfe4 bfbe 4a83 debe 0a4d 853d
000003f0: 72c0 42be 0462 243e 679f 02be e8b0 8d3c

rnn.bias_ih_l0 f4 [16]
-0.19779935 0.305504 -0.080435716 0.35784033 0.017696945 0.19748984 0.0644169 0.010081462
0.060053196 0.18294674 0.36992142 -0.42916167 0.044722438 0.15467969 -0.3641874 -0.18332127
00000000: ea8b 4abe 056b 9c3e 7bbb a4bd d936 b73e
00000010: 2ff9 903c c73a 4a3e 02ed 833d b72c 253c
00000020: 57fa 753d 6456 3b3e 5766 bd3e 14bb dbbe
00000030: e02e 373d 5a64 1e3e c576 babe 92b8 3bbe

rnn.bias_hh_l0 f4 [16]
0.22932585 0.40367645 -0.28653163 0.3417643 -0.011731004 0.20713423 0.26801032 -0.047361836
0.19335566 0.25202963 0.1721212 -0.17035045 -0.23702504 0.33642703 -0.22406507 -0.1412555
00000000: 65d4 6a3e aeae ce3e 46b4 92be bbfb ae3e
00000010: 6633 40bc ff1a 543e a638 893e 7cfe 41bd
00000020: 07ff 453e 070a 813e 8a40 303e 5970 2ebe
00000030: b1b6 72be 2a40 ac3e 5071 65be 48a5 10be

rnn.weight_ih_l1 f4 [16, 16]
-0.015444514 0.07034162 -0.088900626 -0.04640056 0.12013499 0.008469458 0.11055623 0.07369532
0.0070666308 -0.1250561 -0.163385 -0.07880762 0.13100919 -0.002546635 -0.05273685 -0.1903015
0.26548967 0.16855444 -0.03204346 0.067112654 -0.13647641 -0.038307756 -0.026103398 -0.16950764
0.118439615 0.08728574 -0.14459686 -0.016850622 0.24831021 -0.25965226 0.1289335 0.04969556
-0.23111588 0.0728282 -0.20219834 0.31443167 -0.21037696 -0.29292357 0.26120484 -0.24559979
0.07921629 -0.16532826 -0.13449526 -0.017708916 0.20543858 -0.10166831 -0.33606407 -0.37240672
-0.21070708 0.13953927 -0.32911092 0.30060872 -0.005176717 -0.05077008 0.19714314 0.03950681
0.1883875 -0.004557269 -0.20472088 -0.08992771 0.030148005 0.022380643 -0.19059573 -0.44639486
0.25425184 0.2093651 -0.070583954 -0.40897548 -0.4209395 0.095101245 0.04049135 0.114340685
-0.0064517697 0.3563616 0.45437753 0.11493309 -0.14260833 -0.04666367 -0.20310865 0.3297262
0.05911173 0.05695487 -0.24850081 0.3384606 0.22780591 0.35323563 -0.12356237 0.007074763
-0.14150652 0.18308264 -0.15989698 -0.047418393 0.14205605 -0.20719926 -0.14242996 -0.26078144
0.033313192 -0.2267118 0.24427758 -0.20772298 0.009937563 0.26948962 0.21780759 -0.058582418
0.13891092 0.060482323 -0.10150815 0.31097367 0.04728365 -0.17667508 0.091733314 0.03416836
0.10559772 0.07181489 -0.12655103 -0.025472777 0.18162113 0.04024247 0.025110796 -0.0123677235
-0.11908377 -0.10462941 -0.115351275 -0.13085741 -0.1960009 0.059234988 -0.16299963 0.13742742
0.049305007 0.038845666 -0.121739104 0.107306555 -0.1831765 0.16339703 -0.28761715 0.15411757
0.10893109 -0.027743012 0.27397966 -0.20358688 -0.347023 -0.0018400695 -0.050424315 0.09018494
-0.12505853 0.15503278 -0.0811984 -0.03163963 0.08090432 -0.22376525 -0.00798843 0.26609328
-0.09401341 0.27749795 -0.016174987 0.19958715 -0.28507563 0.058808565 -0.026747674 0.29463643
0.24978141 0.07455635 0.09964742 -0.06335913 0.063382335 0.07710305 0.36741808 0.08018642
0.009458145 0.14732872 0.23282096 0.17070852 -0.120720856 0.023996154 0.24736707 -0.023999726
-0.07825882 0.03142857 0.041911397 0.18138488 0.11995376 -0.3260594 0.050673798 -0.1927043
0.062312685 -0.02054055 -0.19198284 -0.022464445 -0.32626963 0.06674286 -0.4267178 -0.04746943
0.14056593 0.031007076 -0.18988189 0.1063175 -0.13066396 -0.19446872 -0.15211685 -0.06724818
0.18010849 -0.0917498 0.18090288 0.18911363 0.22430879 0.076562576 0.33342102 -0.13544184
-0.12873548 -0.09041773 -0.17860228 0.13385208 0.25569084 -0.2819281 0.113135 -0.23006037
-0.024511652 0.0951099 -0.14150861 0.030120438 -0.06880199 0.07249558 -0.09487127 -0.13147755
0.22633034 -0.31196046 -0.050836675 0.048407823 0.026204608 0.06053719 0.2397614 0.50767505
0.108317174 0.018150294 0.064304575 0.0048352247 -0.19387257 0.09175845 0.3597788 0.081264414
0.27729303 -0.017585788 -0.11377624 0.16642725 -0.25432733 -0.22838794 0.14347875 0.22840354
-0.21452387 0.25503168 0.22219557 0.011332133 0.011871741 0.14816704 -0.08907779 -0.043254036
00000000: fd0a 7dbc 440f 903d 8811 b6bd 830e 3ebd
00000010: 5509 f63d 7bc3 0a3c 4e6b e23d 92ed 963d
00000020: 328f e73b b50e 00be 664e 27be e465 a1bd
00000030: 4627 063e 72e5 26bb 9802 58bd 65de 42be
00000040: 43ee 873e 8999 2c3e 0140 03bd 5c72 893d
00000050: 79c0 0bbe 98e8 1cbd cbd6 d5bc 6993 2dbe
00000060: 7890 f23d dec2 b23d 3311 14be 510a 8abc
00000070: 0845 7e3e 24f1 84be 2507 043e 928d 4b3d
00000080: a4a9 6cbe f426 953d 150d 4fbe 30fd a03e
00000090: 0f6d 57be 14fa 95be a4bc 853e 837e 7bbe
000000a0: 263c a23d d04b 29be 20b9 09be 4a12 91bc
000000b0: 7e5e 523e 7a37 d0bd 9710 acbe 18ac bebe
000000c0: 99c3 57be 62e3 0e3e 3a81 a8be 63e9 993e
000000d0: 73a1 a9bb 4af4 4fbd e4df 493e e5d1 213d
000000e0: a7e8 403e 2555 95bb 5aa2 51be 052c b8bd
000000f0: f3f8 f63c 9c57 b73c 872b 43be de8d e4be
00000100: 4c2d 823e ce63 563e 528e 90bd 3c65 d1be
00000110: 6285 d7be 71c4 c23d 42da 253d 732b ea3d
00000120: 5e69 d3bb 0775 b63e 2ca4 e83e 0a62 eb3d
00000130: eb07 12be 6822 3fbd b7fb 4fbe dfd1 a83e
00000140: 241f 723d 8249 693d ff76 7ebe b54a ad3e
00000150: f445 693e 4ddb b43e 450e fdbd 6ad3 e73b
00000160: 16e7 10be 047a 3b3e 09bc 23be ca39 42bd
00000170: 2477 113e 0b2c 54be 29d9 11be 2585 85be
00000180: 6a73 083d 2327 68be e723 7a3e 55b5 54be
00000190: 29d1 223c 8bfa 893e f408 5f3e 1ef4 6fbd
000001a0: aa3e 0e3e 50bc 773d 81e3 cfbd f137 9f3e
000001b0: 80ac 413d 50ea 34be adde bb3d 1ff4 0b3d
000001c0: 9e43 d83d af13 933d 9896 01be 49ac d0bc
000001d0: e4fa 393e 4ad5 243d 28b5 cd3c fea1 4abc
000001e0: 31e2 f3bd f247 d6bd 4a3d ecbd 7cff 05be
000001f0: 76b4 48be 63a0 723d 60e9 26be c6b9 0c3e
00000200: 0cf4 493d a21c 1f3d 5a52 f9bd 8ac3 db3d
00000210: 9f92 3bbe 8d51 273e 8e42 93be ffd0 1d3e
00000220: 4317 df3d 5045 e3bc 1047 8c3e 1479 50be
00000230: 00ad b1be 7d2e f1ba ba89 4ebd e2b2 b83d
00000240: 580f 00be eac0 1e3e 594b a6bd 8f98 01bd
00000250: 2ab1 a53d b822 65be e7e1 02bc 613d 883e
00000260: 1a8a c0bd 3614 8e3e 6881 84bc 9360 4c3e
00000270: 6ff5 91be 40e1 703d f01d dbbc 96da 963e
00000280: b3c6 7f3e 00b1 983d f213 cc3d 6ec2 81bd
00000290: 99ce 813d 34e8 9d3d 391e bc3e c738 a43d
000002a0: 56f6 1a3c 57dd 163e 9e68 6e3e 37ce 2e3e
000002b0: 7f3c f7bd 9593 c43c cb4d 7d3e 139b c4bc
000002c0: 2946 a0bd 3fbb 003d 49ab 2b3d f5bc 393e
000002d0: 51aa f53d 42f1 a6be 548f 4f3d 4754 45be
000002e0: 963b 7f3d a844 a8bc 2697 44be 5b07 b8bc
000002f0: d00c a7be 7bb0 883d c17a dabe 4e6f 42bd
00000300: 84f0 0f3e 8d02 fe3c 6670 42be fdbc d93d
00000310: c6cc 05be cf22 47be 85c4 1bbe 6ab9 89bd
00000320: 5c6e 383e 52e7 bbbd 9b3e 393e 01a7 413e
00000330: 34b1 653e d7cc 9c3d 29b6 aa3e 44b1 0abe
00000340: 3cd3 03be ee2c b9bd 84e3 36be 8510 093e
00000350: e9e9 823e e158 90be 53b3 e73d f294 6bbe
00000360: a9cc c8bc fbc8 c23d a2e7 10be 23bf f63c
00000370: 0fe8 8cbd 9078 943d de4b c2bd 0da2 06be
00000380: 24c3 673e 48b9 9fbe 1e3a 50bd 4847 463d
00000390: 0cab d63c d8f5 773d 0384 753e fef6 013f
000003a0: 65d5 dd3d edaf 943c 1eb2 833d ce70 9e3b
000003b0: 8886 46be dbeb bb3d ed34 b83e f56d a63d
000003c0: 5af9 8d3e 1210 90bc 8403 e9bd e86b 2a3e
000003d0: 3137 82be 87de 69be 18ec 123e 9ee2 693e
000003e0: 25ac 5bbe 8393 823e 3c87 633e 69aa 393c
000003f0: b181 423c 1ab9 173e 6b6e b6bd 252b 31bd

rnn.weight_hh_l1 f4 [16, 16]
0.37681696 -0.25745896 0.26179284 0.31207782 0.21346222 -0.080470376 0.28334606 -0.29400405
0.35388273 -0.32441345 -0.15077925 0.33608657 0.052110355 -0.075654715 -0.1225051 -0.48514146
-0.1964338 -0.16667642 -0.031184291 -0.13992392 -0.15843943 -0.039747503 0.33617845 0.112504095
-0.23439778 -0.10864387 -0.3712658 -0.27753785 0.12477375 0.07067123 -0.1725856 -0.14147972
0.2736395 -0.27343133 0.07766817 0.26910013 0.40658152 -0.13527618 -0.1532814 -0.030832676
-0.003983162 -0.16806124 0.18144882 0.03414314 -0.04820345 -0.011736679 0.060416527 0.15095955
0.09373341 0.15718912 0.4120107 -0.009532472 0.23983137 -0.014864874 -0.08076567 -0.21144836
-0.026756676 -0.30679154 0.1502955 0.18066926 0.09786813 -0.17714962 0.13269092 -0.15219706
-0.102656186 -0.06410529 0.24009205 0.11269977 0.017861485 0.23146443 -0.06633793 0.093409926
-0.03031868 -0.12591903 0.17457034 0.14506684 -0.03287702 0.1167542 0.08349516 -0.022499787
0.17105336 0.1856316 -0.054966778 -0.06773454 0.19583653 -0.22221634 0.019099625 -0.14415218
0.106345564 -0.43789127 0.29369614 0.42515323 -0.06527579 -0.083764456 0.4546046 -0.19510117
-0.06822715 0.07931748 -0.24792266 -0.2014772 -0.30072883 -0.26150486 0.22950406 0.25248426
-0.19627298 0.007146828 -0.16708957 0.0075983326 0.16848907 0.2843128 -0.4712473 -0.29563698
-0.34702185 0.23616798 0.04124043 0.022034569 0.18425816 -0.28991482 0.033867445 0.5694242
-0.29646853 0.20499226 -0.07614636 0.20610061 -0.37575424 0.3648527 -0.38380462 0.10082581
0.19202259 -0.02459334 0.20378594 0.28013408 0.45813146 0.18376893 0.060696673 -0.20634322
0.052188084 -0.12837888 0.21781674 -0.13146695 0.10385517 -0.16883194 0.32892212 0.07745803
0.06344178 0.24316569 -0.504258 -0.48263237 0.07165456 -0.13871601 0.24110001 -0.18101905
-0.3445166 0.26334563 0.23530267 -0.58500147 0.19402331 -0.16651404 0.24843098 0.23472098
0.45886388 -0.26880035 -0.24299772 0.23118336 0.36018065 0.18783635 0.18547921 -0.27755547
0.3092783 -0.32798508 0.24402024 -0.15480863 -0.15073037 -0.099410675 0.11863347 -0.13691373
-0.19027406 -0.36405262 0.35410175 0.08673852 0.042168014 0.07793327 -0.608613 -0.41731995
0.37719834 0.17108047 0.21261658 0.29832688 -0.0532193 -0.26308256 -0.082790814 -0.1427859
0.11688068 0.11903934 -0.26697963 -0.0284869 -0.33331698 -0.5364317 0.23083872 -0.08822861
-0.15048695 0.5193381 -0.22121131 -0.20215951 0.790372 0.31553316 -0.36339164 0.25829935
-0.49023736 0.14815475 0.06850298 -0.19882154 -0.06265559 -0.19817357 -0.06999052 0.071711555
-0.38174787 -0.03289266 -0.4750156 0.2551693 0.012876623 0.4565545 -0.3549232 -0.037483133
0.40084338 -0.054797854 0.031903278 0.07202398 0.15547383 0.04115716 0.02834272 -0.32218882
0.10815656 -0.35727793 0.1618431 0.23762818 -0.3422611 -0.29025587 0.25479576 -0.14893647
-0.07648438 0.14712882 -0.0027355442 -0.14901628 -0.09969904 0.009671012 0.41588813 0.13260116
-0.19813956 -0.067536525 0.13673556 -0.7418294 -0.0816768 0.25701064 0.06898671 0.19632499
00000000: 27ee c03e a9d1 83be b609 863e aac8 9f3e
00000010: d795 5a3e a7cd a4bd bc12 913e b387 96be
00000020: 1e30 b53e 8519 a6be e065 1abe 8a13 ac3e
00000030: ab71 553d dcf0 9abd f4e3 fabd 7664 f8be
00000040: f125 49be 39ad 2abe 3376 ffbc 3748 0fbe
00000050: f23d 22be 47ce 22bd 951f ac3e 8c68 e63d
00000060: f905 70be ad80 debd 8d16 bebe 7119 8ebe
00000070: 6189 ff3d 14bc 903d 48ba 30be 0fe0 10be
00000080: 7a1a 8c3e 31ff 8bbe 7d10 9f3d 7ec7 893e
00000090: 742b d03e d785 0abe cdf5 1cbe cf94 fcbc
000000a0: 2f85 82bb 3f18 2cbe b8cd 393e add9 0b3d
000000b0: fb70 45bd 334b 40bc 5277 773d 2495 1a3e
000000c0: 4df7 bf3d 2ff6 203e 11f3 d23e 162e 1cbc
000000d0: 5b96 753e cd8b 73bc 7968 a5bd eb85 58be
000000e0: d130 dbbc c813 9dbe 10e7 193e 5d01 393e
000000f0: 166f c83d b666 35be 21e0 073e 8cd9 1bbe
00000100: 683d d2bd a249 83bd b1da 753e 23cf e63d
00000110: 4052 923c 0305 6d3e 2edc 87bd b44d bf3d
00000120: e15e f8bc ebf0 00be 91c2 323e 678c 143e
00000130: 0eaa 06bd d31c ef3d 83ff aa3d 7951 b8bc
00000140: 9d28 2f3e 3616 3e3e d824 61bd 68b8 8abd
00000150: 5f89 483e ae8c 63be d176 9c3c a19c 13be
00000160: b4cb d93d 4933 e0be 575f 963e afad d93e
00000170: 50af 85bd b38c abbd efc1 e83e 9ac8 47be
00000180: adba 8bbd 3471 a23d 70df 7dbe 0a50 4ebe
00000190: 21f9 99be f7e3 85be 1d03 6b3e 9e45 813e
000001a0: c9fb 48be f02f ea3b 8719 2bbe 6ffb f83b
000001b0: 6688 2c3e 7391 913e 5347 f1be bb5d 97be
000001c0: d9ac b1be 05d6 713e baeb 283d d781 b43c
000001d0: 2cae 3c3e b76f 94be 97b8 0a3d c9c5 113f
000001e0: b9ca 97be 7ee9 513e 9ff2 9bbd 0a0c 533e
000001f0: dc62 c0be f9cd ba3e 0a82 c4be c37d ce3d
00000200: 92a1 443e f977 c9bc 43ad 503e bc6d 8f3e
00000210: 3590 ea3e ec2d 3c3e 139d 783d a34b 53be
00000220: 2cc3 553d c175 03be 5a0b 5f3e 469f 06be
00000230: 05b2 d43d 48e2 2cbe 7b68 a83e 51a2 9e3d
00000240: c4ed 813d 6d00 793e 0d17 01bf 971b f7be
00000250: a0bf 923d 920b 0ebe ece2 763e 0f5d 39be
00000260: 7b64 b0be 3dd5 863e 2ff3 703e a8c2 15bf
00000270: 0cae 463e a882 2abe b164 7e3e b25a 703e
00000280: 35f0 ea3e 33a0 89be 65d4 78be 55bb 6c3e
00000290: 9969 b83e 2c58 403e 43ee 3d3e c01b 8ebe
000002a0: ba59 9e3e a9ed a7be 71e0 793e 2786 1ebe
000002b0: 1059 1abe d397 cbbd 1bf6 f23d 1d33 0cbe
000002c0: 34d7 42be 1b65 babe d34c b53e f7a3 b13d
000002d0: 5eb8 2c3d 7a9b 9f3d 10ce 1bbf f6aa d5be
000002e0: 2420 c13e b82f 2f3e 29b8 593e 4dbe 983e
000002f0: 7bfc 59bd c2b2 86be 3b8e a9bd 7836 12be
00000300: 235f ef3d e6ca f33d 8eb1 88be 5c5d e9bc
00000310: 86a8 aabe 9753 09bf fc60 6c3e 34b1 b4bd
00000320: 4019 1abe 57f3 043f 3885 62be e702 4fbe
00000330: d255 4a3f 908d a13e 780e babe d03f 843e
00000340: 6400 fbbe e1b5 173e 4a4b 8c3d e097 4bbe
00000350: 9351 80bd 03ee 4abe 3157 8fbd 82dd 923d
00000360: 7574 c3be 74ba 06bd 3f35 f3be 8da5 823e
00000370: 79f8 523c 83c1 e93e 7eb8 b5be ea87 19bd
00000380: 583b cd3e b773 60bd 03ad 023d 4f81 933d
00000390: 8834 1f3e 6994 283d fe2e e83c eff5 a4be
000003a0: 3081 dd3d 22ed b6be 33ba 253e cd54 733e
000003b0: d93c afbe 6b9c 94be 9774 823e cd82 18be
000003c0: d8a3 9cbd f0a8 163e d146 33bb b997 18be
000003d0: 032f ccbd 2a73 1e3c 4aef d43e 99c8 073e
000003e0: 19e5 4abe 9750 8abd 6804 0c3e 88e8 3dbf
000003f0: 2b46 a7bd e696 833e e748 8d3d 6b09 493e

rnn.bias_ih_l1 f4 [16]
-0.23226082 0.05747637 -0.053273898 0.18479091 0.30119973 0.065659605 -0.084994875 0.10320425
-0.016815731 0.06774393 -0.18845083 -0.051142946 -0.5666941 0.20738515 -0.12444068 0.26523414
00000000: c8d5 6dbe 586c 6b3d bb35 5abd d439 3d3e
00000010: da36 9a3e 8b78 863d cb11 aebd c05c d33d
00000020: 25c1 89bc 54bd 8a3d 41f9 40be 447b 51bd
00000030: dd12 11bf c65c 543e c1da febd c5cc 873e

rnn.bias_hh_l1 f4 [16]
-0.15255983 -0.18712465 0.15163398 0.04950256 0.27667862 0.1336591 -0.3060614 0.34068432
-0.051252794 -0.08825451 0.16127539 0.19093888 -0.5784767 0.031340104 0.24007021 0.13366991
00000000: a538 1cbe 9b9d 3fbe f045 1b3e 32c3 4a3d
00000010: d2a8 8d3e eedd 083e 14b4 9cbe 2d6e ae3e
00000020: 73ee 51bd c8be b4bd 6025 253e 7b85 433e
00000030: 0d17 14bf 7b5e 003d f7d4 753e c4e0 083e

fc.weight f4 [3, 16]
1.6310674 -0.69780153 0.20287281 0.7094511 0.29699823 0.7250472 -0.51962835 -1.353751
1.2709639 -0.77767295 0.9736309 0.8625614 0.6815863 -1.1538664 0.93428534 -1.0167309
-0.2513246 -0.4249757 -0.18924934 -0.010332377 0.3843653 0.11320701 -0.061280053 0.8127386
-0.5475045 -0.12996687 -0.027384475 0.15312098 -1.5116526 0.3606627 0.08797804 0.11062627
-0.34805313 0.9250584 -0.6206113 -0.478119 -0.5077967 -0.70606315 0.6138858 -0.6867258
-0.3707926 0.70862097 -0.7007101 -0.62854165 2.323194 0.6117542 -1.1038724 0.32144427
00000000: d1c6 d03f 1fa3 32bf e4bd 4f3e 969e 353f
00000010: 2710 983e b19c 393f 5d06 05bf b647 adbf
00000020: f2ae a23f 9315 47bf e03f 793f d3d0 5c3f
00000030: 717c 2e3f e5b1 93bf 532d 6f3f 3d24 82bf
00000040: 9ead 80be 6a96 d9be 94ca 41be 2149 29bc
00000050: 87cb c43e 14d9 e73d cb00 7bbd a30f 503f
00000060: 4129 0cbf 0916 05be 6855 e0bc bfcb 1c3e
00000070: d57d c1bf c8a8 b83e d52d b43d 0790 e23d
00000080: 0534 b2be a1d0 6c3f 62e0 1ebf 03cc f4be
00000090: f7fe 01bf 8ec0 34bf 9f27 1d3f 43cd 2fbf
000000a0: 87d8 bdbe 2f68 353f bd61 33bf 1be8 20bf
000000b0: 36af 1440 ec9b 1c3f b14b 8dbf 5894 a43e

fc.bias f4 [3]
-0.9276763 0.70513475 -0.59605753
00000000: 327c 6dbf b683 343f 3a97 18bf
